data.pth (torch, 4375 bytes, 6 tensors)

l1.weight f4 [8, 39]
0.662803 -0.33187777 0.13067152 0.5650646 -0.29466426 0.50061154 0.45853576 0.6593524
-0.30228227 -0.3336522 -0.09525037 -0.28839493 0.12444205 0.30736905 -0.33356807 0.72045106
-0.21638232 -0.23346792 -0.14063892 -0.54993635 -0.5498755 -0.5498905 -0.22490509 -0.098757185
0.15344135 0.3561788 -0.33356407 0.36049056 0.56550336 -0.012352778 0.49485588 0.48203486
0.3723882 0.45331046 -0.54994327 -0.31641716 -0.23521215 0.41103387 -0.1564529 0.099094056
0.5174651 -0.3248911 -0.10687945 0.46811655 -0.5794934 -0.0315054 -0.5795172 0.72634923
0.598989 0.47148278 0.6084403 -0.09761972 -0.14537585 0.50965995 -0.54802245 0.017281482
0.54486847 0.4755355 0.6708121 0.48364082 0.34573013 0.34304577 0.49240705 -0.2652158
-0.071832895 0.5696212 -0.39562014 -0.5583286 0.50800794 -0.26857293 0.003928319 -0.56600535
-0.03515876 0.89855236 0.5717107 0.2956022 -0.26244253 0.31140122 -0.5278464 0.43940634
0.25526783 -0.41812894 0.18713595 0.852409 -0.05767398 -0.508755 0.0026161324 0.3567198
-0.047652453 0.30461693 -0.2044415 -0.20114571 0.30195642 -0.535313 0.6614197 -0.073321596
0.07028085 0.36429414 0.33743992 0.55427736 -0.049327876 0.27335697 0.2984487 -0.17503464
0.40441027 -0.11248518 0.41623446 -0.252955 -0.42594433 -0.09233778 0.19381578 -0.05643925
-0.22208925 -0.030854287 -0.072982855 -0.29224756 0.5330507 0.7368395 0.10347654 -0.16769378
0.74396837 0.11660059 -0.48413762 0.1188605 0.33405337 0.2520117 0.26600215 0.38831058
0.23363626 0.166702 0.13227305 0.20868799 0.44542935 -0.12526828 0.5171508 0.25691676
-0.48399803 -0.4840375 -0.30960172 0.18199646 0.06665705 -0.16759107 0.1660098 0.038454212
0.019140122 -0.35889083 0.39694613 0.24709007 0.1473499 -0.11475768 0.11189059 0.6592382
0.47371805 0.2611401 0.17689626 -0.2018273 -0.54840386 -0.23334847 0.3839556 -0.6853432
-0.15552375 0.62836695 0.3925479 0.60800344 0.26240015 -0.057286277 0.19263257 -0.060011905
0.21214853 0.226868 -0.070537634 0.9420923 0.5170409 0.12233316 0.04269829 0.13491346
0.16820107 0.10145312 0.13608156 0.010657253 0.40152833 -0.10071531 -0.052180346 0.5241576
0.75942254 0.09834079 0.48516563 -0.1704005 0.67133665 0.5849174 0.19213866 0.18471357
0.22165105 0.41139588 0.5858729 0.62020445 -0.1373905 0.5636101 0.697857 -0.08291394
0.68716305 0.40583304 0.6521584 -0.26411957 -0.24417967 -0.0070820986 -0.21377002 0.16625698
0.22225016 -0.37107444 0.75674367 0.3113226 -0.42872465 -0.29490513 -0.068704076 -0.20661134
-0.34210145 -0.24999046 0.27464792 0.6172134 0.25756705 -0.40723836 0.43436038 0.68329304
-0.13263074 0.19181952 0.45340332 0.6583413 0.31940228 -0.7064982 -0.27769634 -0.30970708
0.34932986 0.28596652 -0.23611456 -0.3279812 -0.06484561 -0.05343011 -0.34465373 -0.5451402
0.2764098 0.69329387 0.641578 -0.327989 0.49037853 -0.27157 0.16265628 0.28889206
-0.32798764 0.88032335 -0.23237039 0.6166109 0.39812848 -0.48637924 -0.4784054 -0.48583227
00000000: 75ad 293f e2eb a9be c1ce 053e 13a8 103f
00000010: 3cde 96be 1428 003f 33c5 ea3e 52cb 283f
00000020: bec4 9abe 76d4 aabe a012 c3bd 80a8 93be
00000030: 79db fe3d 7a5f 9d3e 6fc9 aabe 7b6f 383f
00000040: 5493 5dbe 3712 6fbe a603 10be a1c8 0cbf
00000050: a4c4 0cbf a0c5 0cbf 854d 66be 3541 cabd
00000060: bb1f 1d3e 115d b63e e9c8 aabe 3892 b83e
00000070: d4c4 103f 4e63 4abc c05d fd3e 46cd f63e
00000080: aba9 be3e 4f18 e83e 15c9 0cbf 6e01 a2be
00000090: 74db 70be 0873 d23e 3035 20be d3f1 ca3d
000000a0: 9878 043f 2058 a6be 9de3 dabd f9ac ef3e
000000b0: ae59 14bf ce0b 01bd 3d5b 14bf 06f2 393f
000000c0: 5857 193f 3166 f13e bec2 1b3f d9ec c7bd
000000d0: 68dd 14be 1379 023f 334b 0cbf e591 8d3c
000000e0: 807c 0b3f 6479 f33e 57ba 2b3f c59f f73e
000000f0: 8a03 b13e b2a3 af3e c71c fc3e 5eca 87be
00000100: 201d 93bd b2d2 113f b98e cabe a0ee 0ebf
00000110: cf0c 023f 6482 89be 21b9 803b bae5 10bf
00000120: a202 10bd 8707 663f a25b 123f 2c59 973e
00000130: de5e 86be fb6f 9f3e f120 07bf def9 e03e
00000140: 77b2 823e ff14 d6be 91a0 3f3e 7a37 5a3f
00000150: 8d3b 6cbd c53d 02bf 6b73 2b3b faa3 b63e
00000160: 382f 43bd c0f6 9b3e 1d59 51be 24f9 4dbe
00000170: 089a 9a3e 460a 09bf cd52 293f a229 96bd
00000180: 68ef 8f3d c384 ba3e edc4 ac3e 1fe5 0d3f
00000190: 070c 4abd 72f5 8b3e 45ce 983e 483c 33be
000001a0: dd0e cf3e a15e e6bd af1c d53e 5183 81be
000001b0: 6015 dabe 971b bdbd a577 463e d82c 67bd
000001c0: 5d6b 63be 21c2 fcbc 0978 95bd 79a1 95be
000001d0: 0376 083f 83a1 3c3f 82eb d33d ebb7 2bbe
000001e0: b674 3e3f 4acc ee3d e3e0 f7be 226d f33d
000001f0: 0b09 ab3e ad07 813e 6f31 883e a5d0 c63e
00000200: 583e 6f3e eeb3 2a3e 9672 073e 4eb2 553e
00000210: 510f e43e 5446 00be ff63 043f 988a 833e
00000220: 97ce f7be c3d3 f7be 1e84 9ebe 485d 3a3e
00000230: 7e83 883d fe9c 2bbe 79fe 293e 2a82 1d3d
00000240: bfcb 9c3c 8ac0 b7be 863c cb3e 2e05 7d3e
00000250: e4e2 163e 1306 ebbd e526 e53d d6c3 283f
00000260: 2c8b f23e 28b4 853e 4b24 353e d1ab 4ebe
00000270: 3264 0cbf e7f2 6ebe d495 c43e a772 2fbf
00000280: 9e41 1fbe a8dc 203f 0afc c83e 1da6 1b3f
00000290: 5059 863e 04a5 6abd 7941 453e 0bcf 75bd
000002a0: 773d 593e 1650 683e 0976 90bd f62c 713f
000002b0: cb5c 043f cf89 fa3d 67e4 2e3d c126 0a3e
000002c0: e73c 2c3e a7c6 cf3d f758 0b3e c29b 2e3c
000002d0: 1f95 cd3e d443 cebd 0fbb 55bd 312f 063f
000002e0: 8469 423f e566 c93d a167 f83e 787d 2ebe
000002f0: b8dc 2b3f 26bd 153f ffbf 443e 8e25 3d3e
00000300: 7ef8 623e 7ba2 d23e c4fb 153f b8c5 1e3f
00000310: 18b0 0cbe c048 103f c2a6 323f c9ce a9bd
00000320: ebe9 2f3f 59c9 cf3e daf3 263f ae3a 87be
00000330: 3c0a 7abe f310 e8bb 87e6 5abe 453f 2a3e
00000340: 8c95 633e 78fd bdbe f4b9 413f ad65 9f3e
00000350: cc81 dbbe cefd 96be b9b4 8cbd ec91 53be
00000360: ec27 afbe 80fd 7fbe a79e 8c3e b301 1e3f
00000370: d4df 833e 8c81 d0be 7c64 de3e 4bec 2e3f
00000380: 5ad0 07be 566c 443e 7b24 e83e 0e89 283f
00000390: b288 a33e 11dd 34bf 372e 8ebe ed91 9ebe
000003a0: 5ddb b23e 346a 923e 04c8 71be 27ed a7be
000003b0: c6cd 84bd 88d9 5abd 7476 b0be 4f8e 0bbf
000003c0: 9685 8d3e b57b 313f 753e 243f 2dee a7be
000003d0: e512 fb3e 390b 8bbe 5e8f 263e a9e9 933e
000003e0: ffed a7be df5c 613f 81f2 6dbe 36da 1d3f
000003f0: 7fd7 cb3e b306 f9be 8df1 f4be 02bf f8be

l1.bias f4 [8]
0.5499242 0.579486 0.59291434 0.4840138 0.691143 0.70648414 0.56034195 0.5535323
00000000: d5c7 0c3f 3259 143f 3cc9 173f a8d0 f73e
00000010: bfee 303f 25dc 343f 9272 0f3f 4bb4 0d3f

l2.weight f4 [8, 8]
-0.018543571 -0.16995619 -0.11520542 -0.2678784 0.004901707 -0.2780786 0.10759115 0.34737715
-0.18359481 -0.16995548 1.0768919 -1.1480848 0.7032044 0.6147174 -0.8166478 0.36266994
0.28579828 0.41517136 0.7884507 0.07112228 -0.19092074 0.7055221 -0.8677431 1.233071
-1.1837072 1.4391471 0.7959235 0.2524258 0.42373613 -0.8496648 0.42992643 0.7932778
-0.13947374 0.14415671 0.22194216 0.031955075 -0.6213578 0.57635766 -0.40663016 1.2147869
0.51428187 -1.1501086 0.35049686 -0.4485587 1.005606 0.8984401 0.6818945 -1.0327661
0.8328356 0.53452724 -1.1050562 1.1381093 -0.09467211 0.75971556 1.323591 0.5178716
-0.4849154 0.37624672 0.45172584 -0.83713055 0.62967473 0.5007792 -0.57866126 0.3586916
00000000: b0e8 97bc ff08 2ebe d2f0 ebbd 5c27 89be
00000010: 809e a03b 5160 8ebe c058 dc3d 6bdb b13e
00000020: 4700 3cbe cf08 2ebe 98d7 893f 71f4 92bf
00000030: 3405 343f 1f5e 1d3f d50f 51bf e0af b93e
00000040: 2754 923e 5791 d43e e8d7 493f 8fa8 913d
00000050: ba80 43be 199d 343f 6924 5ebf 45d5 9d3f
00000060: b883 97bf f935 b83f a4c1 4b3f f43d 813e
00000070: f1f3 d83e a283 59bf 511f dc3e 4114 4b3f
00000080: 34d2 0ebe d19d 133e ce44 633e 53e3 023d
00000090: 4e11 1fbf 2d8c 133f d431 d0be 237e 9b3f
000000a0: faa7 033f c236 93bf 5374 b33e 7ca9 e5be
000000b0: b3b7 803f 2c00 663f a390 2e3f ae31 84bf
000000c0: b734 553f c7d6 083f 7b72 8dbf 91ad 913f
000000d0: 74e3 c1bd b87c 423f 6e6b a93f 3c93 043f
000000e0: d546 f8be 69a3 c03e 9c48 e73e 304e 56bf
000000f0: 5d32 213f 1133 003f 2523 14bf 6da6 b73e

l2.bias f4 [8]
-0.2900504 0.34573185 -0.049909595 0.7113758 0.41302323 0.60634303 0.5991325 0.30923894
00000000: 7c81 94be c403 b13e 016e 4cbd b91c 363f
00000010: c877 d33e 4c39 1b3f bf60 193f 9154 9e3e

l3.weight f4 [5, 8]
-0.0741685 -0.54228014 0.47979608 -0.8868103 0.5322925 -1.0675567 0.47869048 -0.63593376
0.3367217 -0.66044605 -1.4028871 0.72561085 -0.79637957 -1.0277623 0.33134112 -0.85512835
-0.080886364 -0.78261924 -1.2611345 -0.89799964 -0.7027456 0.7781851 0.36734295 -0.26548755
-0.21958874 0.66774154 -0.07069807 -0.678693 -0.34556127 0.8566658 -1.0677512 0.2632314
-0.35325325 0.233819 0.3561329 0.62330264 0.6501191 -0.8649271 -1.101959 0.6628106
00000000: a8e5 97bd dfd2 0abf d5a7 f53e 0006 63bf
00000010: 5244 083f b3a5 88bf eb16 f53e 8ecc 22bf
00000020: c966 ac3e fe12 29bf ce91 b3bf a2c1 393f
00000030: 88df 4bbf b78d 83bf 8ba5 a93e b1e9 5abf
00000040: c0a7 a5bd bc59 48bf db6c a1bf 4ee3 65bf
00000050: 23e7 33bf 2437 473f 6014 bc3e fced 87be
00000060: dfdb 60be 1cf1 2a3f 26ca 90bd d3be 2dbf
00000070: 68ed b0be 734e 5b3f 12ac 88bf 44c6 863e
00000080: 9cdd b4be 3f6e 6f3e 0d57 b63e c390 1f3f
00000090: 356e 263f dd6b 5dbf fe0c 8dbf f5ad 293f

l3.bias f4 [5]
-0.12479118 0.4853962 0.18212192 -0.25274917 -0.38187808
00000000: 8592 ffbd da85 f83e 2b7e 3a3e 5768 81be
00000010: 8685 c3be
